…
;td&gt;4096&lt;/td&gt; &#xA;   &lt;td&gt;32&lt;/td&gt; &#xA;   &lt;td&gt;32&lt;/td&gt; &#xA;   &lt;td&gt;68762&lt;/td&gt; &#xA;  &lt;/tr&gt; &#xA; &lt;/tbody&gt; &#xA;&lt;/table&gt; &#xA;&lt;pre&gt;&lt;code&gt;==============================================================================================================&#xA;Layer (type:depth-idx)                                       Output Shape              Param #&#xA;==============================================================================================================&#xA;OpenLlamaForCausalLM                                         [1, 32, 64, 128]          --&#xA;├─OpenLlamaModel: 1-1                                        [1, 32, 64, 128]          --&#xA;│    └─Embedding: 2-1                                        [1, 64, 4096]             281,649,152&#xA;│    └─ModuleList: 2-2                                       --                        --&#xA;│    │    └─OpenLlamaDecoderLayer: 3x32                      [1, 64, 4096]             202,383,360&#xA;│    └─OpenLlamaRMSNorm: 2-3                                 [1, 64, 4096]             4,096&#xA;├─Linear: 1-2                                                [1, 64, 68762]            281,649,152&#xA;==============================================================================================================&#xA;Total params: 7,039,569,920&#xA;Trainable params: 7,039,569,920&#xA;Non-trainable params: 0&#xA;Total mult-adds (G): 7.04&#xA;&lt;/code&gt;&lt;/pre&gt; &#xA;&lt;p&gt;Pre-training loss from scratch is shown below:&lt;/p&gt; &#xA;&lt;p&gt;&lt;img src=&#34;https://raw.githubusercont
…
