…
ention layers. Example usage is as follows:&lt;/p&gt; &#xA;&lt;pre&gt;&lt;code class=&#34;language-py&#34;&gt;&amp;gt;&amp;gt;&amp;gt; import torch&#xA;&amp;gt;&amp;gt;&amp;gt; from fla.layers import MultiScaleRetention&#xA;&amp;gt;&amp;gt;&amp;gt; batch_size, num_heads, seq_len, hidden_size = 32, 4, 2048, 1024&#xA;&amp;gt;&amp;gt;&amp;gt; device, dtype = &#39;cuda:0&#39;, torch.bfloat16&#xA;&amp;gt;&amp;gt;&amp;gt; retnet = MultiScaleRetention(hidden_size=hidden_size, num_heads=num_heads).to(device=device, dtype=dtype)&#xA;&amp;gt;&amp;gt;&amp;gt; retnet&#xA;MultiScaleRetention(&#xA;  (q_proj): Linear(in_features=1024, out_features=1024, bias=False)&#xA;  (k_proj): Linear(in_features=1024, out_features=1024, bias=False)&#xA;  (v_proj): Linear(in_features=1024, out_features=2048, bias=False)&#xA;  (g_proj): Linear(in_features=1024, out_features=2048, bias=False)&#xA;  (o_proj): Linear(in_features=2048, out_features=1024, bias=False)&#xA;  (g_norm_swish_gate): FusedRMSNormSwishGate(512, eps=1e-05)&#xA;  (rotary): RotaryEmbedding()&#xA;)&#xA;&amp;gt;&amp;gt;&amp;gt; x = torch.randn(batch_size, seq_len, hidden_size).to(device=device, dtype=dtype)&#xA;&amp;gt;&amp;gt;&amp;gt; y, *_ = retnet(x)&#xA;&amp;gt;&amp;gt;&amp;gt; y.shape&#xA;torch.Size([32, 2048, 1024])&#xA;&lt;/code&gt;&l
…
;gla&#34;,&#xA;  &#34;norm_eps&#34;: 1e-06,&#xA;  &#34;num_heads&#34;: 4,&#xA;  &#34;num_hidden_layers&#34;: 24,&#xA;  &#34;num_kv_heads&#34;: null,&#xA;  &#34;tie_word_embeddings&#34;: false,&#xA;  &#34;transformers_version&#34;: &#34;4.48.2&#34;,&#xA;  &#34;use_cache&#34;: true,&#xA;  &#34;use_gk&#34;: true,&#xA;  &#34;use_gv&#34;: false,&#xA;  &#34;use_output_gate&#34;: true,&#xA;  &#34;use_short_conv&#34;: false,&#xA;  &#34;vocab_size&#34;: 32000&#xA;}&#xA;&#xA;&amp;gt;&amp;gt;&amp;gt; AutoModelForCausalLM.from_config(config)&#xA;GLAForCausalLM(&#xA;  (model): GLAModel(&#xA;    (embeddings): Embedding(32000, 2048)&#xA;    (layers): ModuleList(&#xA;      (0-23): 24 x GLABlock(&#xA;        (attn_norm): RMSNorm(2048, eps=1e-06)&#xA;        (attn): GatedLinearAttention(&#xA;          (q_proj): Linear(in_features=2048, out_features=1024, bias=False)&#xA;          (k_proj): Linear(in_features=2048, out_features=1024, bias=False)&#xA;          (v_proj): Linear(in_features=2048, out_features=2048, bias=False)&#xA;          (g_proj): Linear(in_features=2048, out_features=2048, bias=False)&#xA;          (gk_proj): Sequential(&#xA;            (0): Linear(in_features=2048, out_features=16, bias=False)&#xA;            (1): Linear(in_features=16, out_features=1024, bias=True)&#xA;          )&#xA;          (o_proj): Linear(in_features=2048, out_features=2048, bias=False)&#xA;          (g_norm_swish_gate): FusedRMSNormSwishGate(512, eps=1e-06)&#xA;        )&#xA;        (mlp_norm): RMSNorm(2048, eps=1e-06)&#xA;        (mlp): GatedMLP(&#xA;          (gate_proj): Linear(in_features=2048, out_features=5632, bias=False)&#xA;          (up_proj): Linear(in_features=2048, out_features=5632, bias=False)&#xA;          (down_proj): Linear(in_features=5632, out_features=2048, bias=False)&#xA;        )&#xA;      )&#xA;    )&#xA;    (norm): RMSNorm(2048, eps=1e-06)&#xA;  )&#xA;  (lm_head): Linear(in_features=2048, out_features=32000, bias=False)&#xA;)&#xA;&lt;/code&gt;&lt;/pre&gt; &#xA;&lt;h3&gt;Fused Modules&lt;/h3&gt; &#xA;&lt;p&gt;We offer a collection of fused modules in &lt;code&gt;fla.modules&lt;/code&gt; to facilitate faster training:&lt;/p&gt; &#xA;&lt;ul&gt; &#xA; &lt;li&gt;&lt;a href=&#34;https://raw.githubusercontent.com/fla-org/flash-linear-attention/main/fla/modules/rotary.py&
…
 false,&#xA;  &#34;time_step_floor&#34;: 0.0001,&#xA;  &#34;time_step_init_scheme&#34;: &#34;random&#34;,&#xA;  &#34;time_step_max&#34;: 0.1,&#xA;  &#34;time_step_min&#34;: 0.001,&#xA;  &#34;time_step_rank&#34;: 144,&#xA;  &#34;time_step_scale&#34;: 1.0,&#xA;  &#34;transformers_version&#34;: &#34;4.45.0&#34;,&#xA;  &#34;use_bias&#34;: false,&#xA;  &#34;use_cache&#34;: true,&#xA;  &#34;use_conv_bias&#34;: true,&#xA;  &#34;vocab_size&#34;: 32000&#xA;}&#xA;&#xA;&amp;gt;&amp;gt;&amp;gt; AutoModelForCausalLM.from_config(config)&#xA;SambaForCausalLM(&#xA;  (backbone): SambaModel(&#xA;    (embeddings): Embedding(32000, 2304)&#xA;    (layers): ModuleList(&#xA;      (0): SambaBlock(&#xA;        (mixer_norm): RMSNorm(2304, eps=1e-05)&#xA;        (mixer): MambaMixer(&#xA;          (conv1d): Conv1d(4608, 4608, kernel_size=(4,), stride=(1,), padding=(3,), groups=4608)&#xA;          (act): SiLU()&#xA;          (in_proj): Linear(in_features=2304, out_features=9216, bias=False)&#xA;          (x_proj): Linear(in_features=4608, out_features=176, bias=False)&#xA;          (dt_proj): Linear(in_features=144, out_features=4608, bias=True)&#xA;          (out_proj): Linear(in_features=4608, out_features=2304, bias=False)&#xA;        )&#xA;        (mlp_norm): RMSNorm(2304, eps=1e-05)&#xA;        (mlp): SambaMLP(&#xA;          (gate_proj): Linear(in_features=2304, out_features=12288, bias=False)&#xA;          (down_proj): Linear(in_features=6144, out_features=2304, bias=False)&#xA;          (act_fn): SiLU()&#xA;        )&#xA;      )&#xA;      (1): SambaBlock(&#xA;        (mixer_norm): RMSNorm(2304, eps=1e-05)&#xA;        (mixer): Attention(&#xA;          (q_proj): Linear(in_features=2304, out_features=2304, bias=False)&#xA;          (k_proj): Linear(in_features=2304, out_features=2304, bias=False)&#xA;          (v_proj): Linear(in_features=2304, out_features=2304, bias=False)&#xA;          (o_proj): Linear(in_features=2304, out_features=2304, bias=False)&#xA;          (rotary): RotaryEmbedding()&#xA;        )&#xA;        (mlp_norm): RMSNorm(2304, eps=1e-05)&#xA;        (mlp): SambaMLP(&#xA;          (gate_proj): Linear(in_features=2304, out_features=12288, bias=False)&#xA;          (down_proj): Linear(in_features=6144, out_features=2304, bias=False)&#xA;          (act_fn): SiLU()&#xA;        )&#xA;      )&#xA;    )&#xA;    (norm_f): RMSNorm(2304, eps=1e-05)&#xA;  )&#xA;  (lm_head): Linear(in_features=2304, out_features=32000, bias=False)&#xA;)&#xA;&lt;/code&gt;&lt;/pre&gt; &#xA;&lt;p&gt;During inference, you &lt;strong&gt;DO NOT&lt;/strong&gt; need to revise anything for generation! The model will produce output as-is, without any need for additional configurations or modifications.&lt;/p&gt; &#xA;&lt;h2&gt;Evaluations&lt;/h2&gt; &#xA;&lt;p&gt;The &lt;a href=&#34;https://github.com
…
